skeleton codes/keras_model_cnn.tflite (tflite, 377300 bytes, 10 tensors)

sequential_1/conv2d_3/BiasAdd/ReadVariableOp f4 [32]
000000 b7 89 bb bc f7 1f d9 bd 4e 24 ae bd 22 a5 6f bc
       -0.022892816 -0.106018 -0.08503018 -0.014626773
000010 b7 b1 05 bc 46 90 8e bd ba dd 9a bc 2d f0 e9 3b
       -0.008160046 -0.06961112 -0.018904556 0.007139227
000020 01 ec fe 3b 9c 56 03 bd c0 5b f1 bc d9 1b a0 bd
       0.0077795987 -0.03206502 -0.029462695 -0.078178115
000030 b3 5b 67 bd 2a 8d 6e bc aa d6 54 bc 73 53 85 bc
       -0.056483936 -0.014560023 -0.012990633 -0.016275143
000040 3f ef 71 3d 80 0b 86 3d 34 38 0d bc 43 8e 07 be
       0.059066053 0.06545162 -0.008619357 -0.13237862
000050 70 d9 7d 3d 11 90 a1 bb b6 cf fc bb 80 86 ba bd
       0.061974943 -0.004930504 -0.0077151908 -0.09107685
000060 0b 52 c5 bc bb d4 55 bd 03 b5 c6 bd d8 e5 56 bd
       -0.024086973 -0.05220483 -0.09702494 -0.05246529
000070 6d 9e 8b bd f5 2c 6b bd a3 6c 14 bd 3c 98 17 3e
       -0.06817327 -0.05741592 -0.036236417 0.14804167

sequential_1/conv2d_4/BiasAdd/ReadVariableOp f4 [64]
000000 82 b9 76 bd 3d 1c ba bc 3d f0 6d bd d1 6f 10 bd
       -0.060235508 -0.022718543 -0.058090437 -0.035262886
000010 e0 87 00 3d 68 c4 9c bd 94 30 d7 bd 65 f7 64 bd
       0.03137958 -0.07654649 -0.105073124 -0.055899996
000020 17 a4 80 3c f9 c6 aa 3c 21 ca cf bc 64 53 7a 3c
       0.015703244 0.02084683 -0.025364937 0.015278671
000030 a0 41 12 bd 89 67 2f bd 8d 3a 6e bd 98 0a 9a bd
       -0.035707116 -0.04282335 -0.058161307 -0.07521552
000040 c3 a9 50 3d 49 17 f5 bb d3 35 ff bc 75 76 29 bd
       0.050943147 -0.0074795824 -0.031153595 -0.041372735
000050 0a 3f 36 bd 88 cc 96 bd a7 67 d4 bd 6d b4 3a bc
       -0.044493712 -0.0736323 -0.103713326 -0.011395556
000060 6a 8e 98 bd 28 e0 59 bc a4 5d bf 3c e2 ac c6 bc
       -0.07449038 -0.013298072 0.023360081 -0.024252359
000070 b6 01 bf bc b5 df 6c bc 56 22 ee 3c 8d 05 0e bd
       -0.023316246 -0.014457633 0.029069107 -0.034673262
000080 05 e7 bf bd 7c 79 80 bd 04 68 67 3d 76 85 a3 bb
       -0.09370235 -0.06273171 0.05649568 -0.004990275
000090 c6 a0 95 bd 56 78 23 bd 46 db 10 bd fc 10 fd bc
       -0.07306056 -0.039909683 -0.035365365 -0.030891888
0000a0 85 d9 8c bd 58 92 6f bd fc cd 73 bd f0 aa c6 3b
       -0.06877426 -0.058489174 -0.059522614 0.006062858
0000b0 ca 20 dd bc d7 e8 32 bd 32 10 0f bd 90 81 7c 3c
       -0.026993174 -0.043679085 -0.034927554 0.0154117495
0000c0 f7 0e 31 bd d4 cb 72 bc 55 a9 06 bc dc ca 78 bd
       -0.043227162 -0.014819104 -0.008219083 -0.060740337
0000d0 57 ab 4a 3d d7 1d 49 bd eb 23 31 bd ef e5 f9 bd
       0.04947981 -0.049100723 -0.043247145 -0.122020595
0000e0 ec 27 ed bc 3b 67 af bd 37 10 11 3c 3c 8c 1f bd
       -0.0289497 -0.085646115 0.008853964 -0.038952097
0000f0 d8 29 49 bd 7a 7b 03 3d f4 4b 39 bd 71 85 0f bd
       -0.04911217 0.03210018 -0.04523845 -0.03503937

sequential_1/conv2d_5/BiasAdd/ReadVariableOp f4 [64]
000000 f1 ad a3 3d e7 33 ad bc 12 af 64 bd 98 2b ad bc
       0.07992161 -0.021142913 -0.055831023 -0.021138951
000010 9f 3a e6 bc fc a4 57 bc aa 62 3c bd 88 cf 33 3b
       -0.028104125 -0.013161894 -0.04599253 0.002743693
000020 e2 07 da bc bc 1e 27 bb 61 4e fa bc 80 f3 2c 3d
       -0.026615087 -0.0025500497 -0.030554952 0.042224407
000030 fd c7 14 3c 71 24 28 bc c6 1c b9 bc 1f 85 15 bd
       0.009080884 -0.010262595 -0.022596728 -0.036503907
000040 5a a9 df bc 04 c6 6e bb ac e3 32 3b 54 27 6e bd
       -0.027302433 -0.0036433944 0.0027296348 -0.058142975
000050 13 30 7a bd a8 f0 5e bd b2 95 83 bc 31 ec 4c bd
       -0.061081003 -0.054428726 -0.016062591 -0.050029937
000060 d9 35 ed bb 2c 7a 29 3c 01 62 cb 3d d2 9c 33 bc
       -0.007239085 0.010344069 0.09930802 -0.010962682
000070 2a f4 ec 3c de 19 b0 3c d6 c9 c2 bc f7 70 60 3c
       0.02892502 0.02149671 -0.023777883 0.013698808
000080 ab 88 ca 3c dc 94 ab bc df d0 44 bc 09 72 f7 3b
       0.024723371 -0.020945005 -0.012012689 0.007551436
000090 df b4 53 bd bd 79 94 3d 04 6a 85 bb cd a2 7e bc
       -0.051686164 0.07249782 -0.004071476 -0.015541744
0000a0 92 cf 2c 39 fe a8 91 b8 aa 53 05 bb 9c 8b 6d 3d
       0.00016480524 -6.945616e-05 -0.0020344057 0.05799447
0000b0 12 34 01 3d df 96 0a 3d 27 c1 41 3b 75 d6 33 bd
       0.0315438 0.033835288 0.002956459 -0.043905694
0000c0 65 c0 c2 bb b7 83 81 bb bd ec 1e bd c9 ef 24 bd
       -0.0059433454 -0.003952469 -0.03879999 -0.04026774
0000d0 95 a5 bb bc a6 3e 3b 3b 45 91 69 bb 81 c2 e0 bc
       -0.022906104 0.0028571277 -0.0035639566 -0.027436497
0000e0 11 ab fd bb 3a 67 7f 3c 83 c7 e6 bc f9 87 dc 3b
       -0.00774134 0.015588576 -0.028171306 0.0067300764
0000f0 ad e7 23 3d af db fb 3c d1 d9 55 3c ea ed 8f bd
       0.040015865 0.030744402 0.01305242 -0.070278004

sequential_1/conv2d_3/Conv2D f4 [32, 3, 3, 1]
000000 4f 5f c3 bc a1 86 c2 3d 9f 08 44 3e db e7 45 3e
       -0.023849158 0.09498335 0.19143914 0.19326727
000010 bd bc 28 3e 9d 93 07 be 0c 41 a2 bd 7d 75 89 be
       0.16478248 -0.13239904 -0.07922563 -0.2684745
000020 2f 8d 61 be a2 5c 98 3d 11 17 8b bd 0a 04 44 bd
       -0.22026514 0.07439543 -0.06791509 -0.047855414
000030 f1 be 69 bd 17 e6 6a bd b5 84 9b bc 6f fd 6f 3d
       -0.05706686 -0.057348337 -0.018984178 0.058591302
000040 f2 26 82 3d b4 24 33 bd 63 a3 81 3d cd 85 a6 bd
       0.063550845 -0.043736175 0.06329992 -0.08130989
000050 a0 13 37 bd d6 24 49 3c 26 d0 3a be f4 7d 93 bd
       -0.04469645 0.012276849 -0.18243465 -0.07201758
000060 24 3c 58 3e 7d d2 03 3d de de cf 3d 33 82 90 3d
       0.21116692 0.03218316 0.101499304 0.070560835
000070 41 ec 39 3e 9f b5 9e bd 90 32 bb bd b1 c0 18 3e
       0.1815653 -0.07749485 -0.091405034 0.14917256
000080 a6 ba 2f bd 74 19 44 be f6 9b 9e bd 3f 55 5d 3d
       -0.04290261 -0.19150335 -0.07744591 0.054036375
000090 38 d3 03 be 73 f1 19 be ab 11 8c bd ba a2 8d be
       -0.12873542 -0.15033512 -0.068393074 -0.27663213
0000a0 35 30 3d be 5c ed 20 be 0e d0 9e bc b3 31 55 3e
       -0.18475421 -0.15715545 -0.019386318 0.2081974
0000b0 ed 8d 45 3e 89 99 c4 3d 15 59 f7 3b 7c 89 83 3d
       0.19292422 0.09599597 0.007548461 0.064227074
0000c0 e9 71 b4 3d 73 50 f8 3c a4 06 16 be 31 67 91 3d
       0.08810789 0.030311799 -0.1465097 0.0709976
0000d0 eb 83 15 3e 25 1e cc bd 94 63 ae 3c c4 2b 7f 3d
       0.14601104 -0.09966687 0.021287717 0.062297598
0000e0 9d ff 9e be 08 47 7e 3e 75 85 a7 bd 3d bb 61 be
       -0.31054392 0.24831784 -0.08179752 -0.22044082
0000f0 3e 17 f1 3d d2 ee 0c bc 5f a9 e5 3d ba 3a bd bc
       0.11772011 -0.008601861 0.112139456 -0.023099292
000100 2b 13 ef 3c bd b0 23 3e fd ff 3c 3e b8 0e 20 3e
       0.029183945 0.15985389 0.18457027 0.15630615
000110 c7 36 f4 bc f8 8d 17 be f8 f7 9b be c9 81 1b be
       -0.029811276 -0.1480025 -0.30462623 -0.15186228
000120 ed 04 c4 3d 98 9b 35 3e cc 62 5b 3e 46 06 0d be
       0.09571252 0.17735136 0.21424407 -0.13771924
000130 35 73 af bc bc 43 af bc 4a 46 a7 be bd dc 9f be
       -0.02141724 -0.021394603 -0.32670814 -0.31223097
000140 18 77 77 be 85 17 cf 3c 6d b7 29 3e 75 e5 ea 3d
       -0.24166524 0.02527977 0.16573878 0.11469547
000150 1e de 27 3d af 4d 7a bc 2f d4 9a 3d de 3b 9a be
       0.04098331 -0.01527731 0.07560002 -0.301238
000160 bb 1e 88 be 33 22 67 bc c2 c0 9e bd 36 0f 31 be
       -0.26585945 -0.014107275 -0.077516094 -0.17290959
000170 ec 0b 06 3a 4f 1f 1b bd d7 f0 80 be a7 e6 72 bd
       0.0005113471 -0.037871655 -0.25183746 -0.059302
000180 4a de 51 3e 6b 98 61 3e a5 9b 45 3d b6 a7 b5 bd
       0.20494953 0.22030799 0.048244137 -0.08869879
000190 63 eb 5f 3c 66 aa 26 3d 58 34 47 3e 27 8b 36 bd
       0.01366696 0.04068985 0.19453561 -0.0445663
0001a0 24 5a c3 3d 1b 09 38 3d 22 77 db bd c0 f3 2e be
       0.09538677 0.04493056 -0.10716082 -0.17085171
0001b0 9b 46 2b 3e e1 49 19 be 91 49 ab 3d e3 68 12 bd
       0.16726153 -0.14969589 0.08363641 -0.03574456
0001c0 41 f2 b3 bd 0a 26 80 bd 9c 6e 66 3c 5e 48 b2 bd
       -0.08786441 -0.062572554 0.014064457 -0.08705209
0001d0 d8 f1 e7 bd 7d 1b 05 3e 99 0c 40 bd db a5 82 3d
       -0.11325425 0.12998767 -0.046887014 0.06379291
0001e0 1d 49 4e 3d fa da 38 3e 40 81 c9 be 49 5b 6c 3e
       0.050362695 0.18052283 -0.39356422 0.23081698
0001f0 c0 a6 84 bd fc 51 88 be 9e aa 22 bd 1c 22 ac 3d
       -0.064771175 -0.2662505 -0.039713494 0.08404943
000200 3b a9 91 3e 55 37 29 be 63 d5 d2 be 9c bb 1c be
       0.28449425 -0.16525014 -0.41178426 -0.15305942
000210 e0 5b 62 3e ea 80 9f 3d f2 ab 8b bd 6e 9a bc 3d
       0.2210536 0.0778826 -0.06819905 0.092091426
000220 f2 09 93 be ea 4f ef bb dd bd 82 be db c3 1d be
       -0.28718525 -0.0073032277 -0.2553548 -0.15406744
000230 52 e2 74 3d 68 94 25 3d ab e0 8f 3e 9b 34 73 3e
       0.05978615 0.040424734 0.28101096 0.23750536
000240 93 57 aa 3e 2c 60 fb bd fe 00 70 be bc 6a fd 3d
       0.3326994 -0.12274203 -0.23437878 0.123738736
000250 6e 19 cf be 1f 3b 19 bd a1 90 23 be bc 9a 78 be
       -0.4044909 -0.037409898 -0.1597314 -0.24277776
000260 52 30 df bc 42 dd ad 3e 70 e8 a4 3d d5 bd 48 be
       -0.02724472 0.3395787 0.080521464 -0.19603665
000270 8b 02 89 be 6e 0a 0a bf 2f 1c 13 be 7e ed 96 be
       -0.26759753 -0.53922164 -0.1436622 -0.29478067
000280 f9 bd 2d 3e 46 1c 2b 3e 84 0a 1b be 4c 32 28 be
       0.16967 0.16710004 -0.1514073 -0.16425437
000290 07 2a 8c be a7 99 c6 3d 94 8f d0 3c 03 83 b0 3d
       -0.27375814 0.096972756 0.025459088 0.086187385
0002a0 77 f6 06 3e c8 fb 8f 3d df d6 45 3e b2 fc b9 3d
       0.13179956 0.07030445 0.19320248 0.09081401
0002b0 36 99 b2 3d ab 34 d0 3c af 6a 56 bd b4 4b 06 3c
       0.08720629 0.025415739 -0.052347835 0.00819676
0002c0 49 f0 e2 3d 79 88 bc 3b 59 90 81 bd a1 e3 7f bd
       0.11080987 0.0057535735 -0.0632636 -0.062472943
0002d0 28 9b c4 bd d6 73 f4 be bd 59 87 be 84 77 d3 be
       -0.09599906 -0.47744626 -0.26435652 -0.4130212
0002e0 d6 d3 7a 3c b5 87 b4 3d 57 6e 4d be 92 ca a3 bc
       0.015309295 0.088149466 -0.20061623 -0.019994054
0002f0 73 91 6b 3e 78 a7 8c 3d b2 43 57 3c 4f d3 17 3e
       0.23004703 0.0686788 0.013138698 0.14826702
000300 6e 9c 57 39 9b 75 18 3e 85 45 05 3e e5 85 44 be
       0.00020562272 0.14888613 0.13014801 -0.19191702
000310 3a 45 98 be cc 0e b3 bd 70 c1 e1 bd 79 2c b1 be
       -0.29740316 -0.08743057 -0.110232234 -0.34604242
000320 f4 8e de be 63 c4 07 3e 24 87 35 3e dd c2 c2 be
       -0.4346844 0.1325851 0.17727333 -0.38039294
000330 c7 f9 8b 3e 4c 07 16 3e 44 a7 11 bd ff 24 d8 3d
       0.27339002 0.14651221 -0.035559908 0.105539314
000340 e3 29 42 be 00 6e 9a be 04 d1 35 3e 2e c7 d6 3d
       -0.18961291 -0.30162048 0.17755514 0.10487209
000350 f5 27 08 be d2 f0 eb 3c 9c 99 88 3d 59 d9 c3 3d
       -0.13296492 0.028801356 0.06669924 0.0956294
000360 cb 67 54 3d f0 6d 04 3e 22 86 dc bd f4 ed 28 3a
       0.051856797 0.12932563 -0.10767771 0.0006444149
000370 b3 f7 94 3d c3 03 97 bd 8d 9c 5f bd de 4a 12 bd
       0.072738074 -0.07373764 -0.054592658 -0.03571593
000380 8e 2e dd bd 74 33 51 be 07 de 9f bd c5 6a 12 3e
       -0.10799895 -0.20429784 -0.0780602 0.14298542
000390 2a 1f 3e be db 5a 25 bc 8e c7 8d 3e a6 cc a4 3c
       -0.18566576 -0.010092462 0.2769131 0.020117115
0003a0 6f 9a 0c bd c5 35 fd 3d e0 30 5a bc 09 49 5f 3e
       -0.034326967 0.12363771 -0.013317317 0.21805204
0003b0 71 a2 aa bd aa 5f 7d 3d 1e 5d e2 bc 19 fe d9 3c
       -0.083317645 0.06185881 -0.027632292 0.026610421
0003c0 9f b4 2f be cd 05 e8 3d 98 35 c7 3d 6b d4 c4 3d
       -0.17158745 0.113292314 0.09727019 0.09610828
0003d0 e4 c4 01 be 56 4a 22 be fe b3 7f 3d c4 9f 0e 3e
       -0.12672764 -0.1584867 0.062427513 0.13928133
0003e0 9a 3d 94 3c 93 25 58 be db f9 08 3e 61 8c 16 bd
       0.01809578 -0.21108083 0.13376562 -0.03675497
0003f0 ea 9d 9d 3c c9 ba 9b bc e5 aa 4c be 93 8b 7b 3d
       0.019240338 -0.019009965 -0.19987066 0.061412405

sequential_1/conv2d_4/Conv2D f4 [64, 3, 3, 32]
000000 a9 e2 ab 3d f0 35 49 bb 55 e9 d3 3b 26 2e 5c 3b
       0.08392841 -0.0030702315 0.0064670243 0.0033596843
000010 80 5f af 3d 35 a8 6b 3c 0c 75 49 3d 52 ac 9e 3d
       0.08563137 0.014383365 0.04918389 0.07747711
000020 8d cc 8e bd e0 0b 0a 3d 94 46 7e 3d ac 11 65 3d
       -0.06972609 0.03370273 0.062079027 0.055925056
000030 fc 3a e4 3c 93 07 9c bd cf 76 5c 3d a5 63 bd 3d
       0.027860157 -0.07618632 0.053824242 0.09247521
000040 7a 48 0f be d6 8d 13 3d 9b 32 c1 3d 1a d8 8b bc
       -0.13992491 0.036023937 0.0943348 -0.017070819
000050 ee 46 cf bd 8a 76 8d 3d e3 61 aa bd f2 50 cd 3c
       -0.10120951 0.06907375 -0.08319452 0.025063012
000060 92 2a 54 3b cb 5f 04 bd 36 40 4e bd f2 01 03 be
       0.0032374007 -0.032317918 -0.050354205 -0.12793711
000070 34 cd 74 bc 5f 92 31 3d 64 60 06 be cb 69 8d bd
       -0.014941502 0.04335248 -0.13122708 -0.06904944
000080 c5 15 9c bd 6c b2 8c 3d 1b d3 52 3e 46 21 d9 bd
       -0.0762134 0.06869969 0.20588343 -0.106020495
000090 26 60 2b 3e 54 de 83 bc c8 a9 4e 3d d5 61 a7 3d
       0.16735896 -0.016097225 0.050454885 0.08172957
0000a0 4d c3 72 3d 70 6a 17 3c 9b 54 26 3e cb 51 02 be
       0.059268285 0.009241685 0.16243212 -0.12726514
0000b0 3b 89 f9 bd 26 d3 35 bd bb a4 d6 3d c5 7a fa 3d
       -0.12184378 -0.04439082 0.104806386 0.12230448
0000c0 00 93 06 be c4 d5 9c 3d 61 2f 7b bb f9 41 e9 bd
       -0.13142014 0.0765796 -0.00383278 -0.113895364
0000d0 8c 28 06 be 2d 7e bc 3d 59 c9 c8 3d fb 40 2c 3d
       -0.13101405 0.092037536 0.09804029 0.042054158
0000e0 70 f9 be 3c 62 c8 c6 bd 99 2a 1c 3c 37 b9 7f bd
       0.0233123 -0.09706189 0.00953164 -0.062432494
0000f0 eb 7f 52 bd a5 7e 4d bd dd 56 04 be 5b cc a1 3d
       -0.051391523 -0.050169606 -0.1292376 0.07900306
000100 df e9 29 be e3 ed 98 3d 1d a4 14 3e b3 ae 0b be
       -0.16593121 0.07467248 0.14515729 -0.13640861
000110 d7 bd 10 3e e5 87 7a bd 9a ac 50 3d c7 99 8b be
       0.14134918 -0.061164755 0.050945856 -0.2726576
000120 6a 73 55 be 87 bf 71 be 5d 53 29 3e d3 bb 51 be
       -0.20844808 -0.23608218 0.16535707 -0.20481806
000130 11 78 0a be f7 8f 94 bd 2c 5e 21 3e ff 1d c0 3d
       -0.13522364 -0.072540216 0.1575858 0.09380721
000140 4c 4f 33 bd 4d b5 9e 3d 62 c5 ef 3d e4 2e 58 be
       -0.043776795 0.07749424 0.1170757 -0.21111637
000150 ee 81 82 bd c5 c0 8c be c5 43 4b 3d d4 aa a4 bc
       -0.06372438 -0.2749082 0.049625177 -0.020100988
000160 74 dd 1f bd 3d 77 e6 3c 2c 77 ff bd 82 64 bc bc
       -0.039029554 0.02813303 -0.12473902 -0.022997145
000170 23 25 bb bd 1c 4d b8 bd b2 7b 63 be eb a0 c7 3d
       -0.09137943 -0.089990824 -0.22215155 0.097474895
000180 26 e6 50 3e c8 cf 89 3d bd 87 7d 3d ff 12 53 bd
       0.20400295 0.06729084 0.06189703 -0.051531788
000190 d8 b7 5c 3d 7a 47 42 3d 37 f8 23 bd 36 94 14 3e
       0.053886265 0.047431447 -0.040031638 0.14509663
0001a0 cd 68 03 3e 88 08 da 3d c5 53 89 3d 39 6b c7 3d
       0.12832947 0.106461585 0.06705431 0.09737248
0001b0 c2 5b c6 3b 76 35 79 bd 7d 5c d1 bc ef 5d bc bc
       0.006053419 -0.060842 -0.025556797 -0.02299401
0001c0 a9 23 22 be 22 fc 2e bd 64 a3 46 3e 4c 0e c6 3c
       -0.15833916 -0.04272092 0.19398266 0.02417674
0001d0 d0 bf ef bd c8 c5 50 3e 9e d7 51 bc 35 d7 5f 3e
       -0.11706507 0.20387948 -0.012807755 0.21859439
0001e0 74 1a e9 bc 5b 29 65 bd 17 51 c8 bc 12 ef c5 3d
       -0.028454997 -0.055947643 -0.02445273 0.0966474
0001f0 34 d8 50 3e de b8 10 3d f2 e8 39 bd e9 b9 ea bc
       0.20394975 0.035332553 -0.04538817 -0.028653102
000200 91 8a d5 3d 29 c1 84 3d 4a e7 5f 3d d9 c3 04 3e
       0.1042682 0.06482155 0.054663934 0.12965335
000210 3e 13 4d 3d ec b9 42 3c e1 4a 86 3b bd 6a 08 3e
       0.05006718 0.011885148 0.0040982817 0.13321967
000220 57 7b 3f 3e 0b 7a e6 3d a2 d3 f1 3c 35 b4 a5 3c
       0.18699394 0.112537466 0.02951986 0.020227531
000230 6f 50 2d bd f2 1e b0 3c a1 ff 07 3d 07 29 67 3c
       -0.042313036 0.02149913 0.03320277 0.014108903
000240 30 85 68 be 12 a7 c0 bd e9 11 2e 3e 57 53 88 3d
       -0.22707057 -0.09406866 0.1699902 0.06656521
000250 c0 a8 09 be 9d 09 91 3d b3 31 08 3e 36 a5 55 3d
       -0.1344328 0.07081912 0.13300209 0.05215951
000260 4b a3 13 3c 82 87 5c bd 2a 15 09 3e 41 ad 17 3e
       0.0090111 -0.053840168 0.1338698 0.14812185
000270 0d 4f 63 3d bc 26 f3 3c 11 fe ff bc 1c 49 8a bd
       0.05549531 0.029681556 -0.031249078 -0.06752226
000280 5d 99 01 3d e8 20 45 3d b0 73 36 bd 54 de 01 bc
       0.0316404 0.048127085 -0.044543922 -0.007926542
000290 18 b8 c0 bd 39 68 b3 3b 02 b8 69 bc 16 ee 01 3d
       -0.09410113 0.005475071 -0.014265062 0.031721197
0002a0 0d bd b2 3d 96 49 08 3e 4a 1b 4a 3d 0e 75 1c 3d
       0.08727465 0.13309321 0.04934243 0.03819757
0002b0 69 9a a8 3c 55 26 cf bd b1 5c 1f bd 31 87 23 bd
       0.020581441 -0.10114733 -0.038906757 -0.03992385
0002c0 b3 2f 43 be 76 65 f6 bc 9a c5 2c 3e a2 71 ac 3d
       -0.19061165 -0.030077677 0.16872254 0.08420111
0002d0 e8 3f 5f bd 7a 3e 3c 3d ea 2a e2 bb 80 c0 89 3d
       -0.054504305 0.04595802 -0.0069020884 0.067261696
0002e0 18 b4 39 3d fe 10 b6 bc 28 bc 1a 3e 2c f0 60 3d
       0.045337766 -0.0222249 0.15110838 0.054916546
0002f0 6c ac d0 3d 4e 01 10 bd 78 d7 b0 bc 91 98 32 be
       0.10189137 -0.035157494 -0.021587119 -0.17441012
000300 99 f4 d3 3d d4 b7 9a bd 6b fb 98 3d 04 36 88 bd
       0.10349388 -0.07554594 0.07469829 -0.06650928
000310 45 b2 87 be 71 18 ea 3d 39 c1 6c bd a7 1a b6 bd
       -0.26503196 0.11430443 -0.05780146 -0.08891802
000320 e9 39 fd 3d a0 72 8e 3c ee 0f dc bd 51 fe 66 3d
       0.12364561 0.017388642 -0.10745226 0.05639488
000330 43 55 39 3e 39 47 1f 3e 98 fb 7a 3e 94 04 1c be
       0.18098931 0.15554513 0.24510038 -0.15236121
000340 ea 50 a3 bc e7 8b 33 3c 57 f8 ab bd 93 a7 90 3b
       -0.019936044 0.010958648 -0.083969764 0.0044145077
000350 fe eb 14 be a7 08 28 3d 74 41 c8 3d 60 56 fc 3c
       -0.14543149 0.041023877 0.09778109 0.030802906
000360 e6 87 7c bc 4b 19 82 be 2a 99 05 be 2d 5c c9 bd
       -0.01541326 -0.25409922 -0.13046709 -0.09832034
000370 8c b2 ec 3c a8 38 de 3d 81 51 27 be 8c 27 bf bc
       0.028893732 0.1085065 -0.16339685 -0.023334287
000380 13 5d c0 bc 5d 50 f8 bd f2 ad 91 bd ed 55 0f 3e
       -0.023481881 -0.12124703 -0.071132556 0.13997622
000390 66 39 34 bd a9 11 c2 bd a3 7b dc bc 4c b7 c1 bb
       -0.044000052 -0.09476025 -0.026914423 -0.0059117433
0003a0 f8 95 57 3e 64 a5 3a 3e db 26 0f bd 32 7d 73 bd
       0.21053302 0.18227154 -0.034949165 -0.059445567
0003b0 ad 6f 2b bd ff 98 9e bd cf 66 33 3e 3c 6d c2 bc
       -0.04185455 -0.077440254 0.17519687 -0.023733728
0003c0 fd 98 1c be a9 72 32 3d 65 13 03 3d 8c 5f 99 bc
       -0.15292735 0.04356638 0.032000918 -0.018722318
0003d0 77 01 40 be 1b bc 52 3d dc f1 86 3d 75 21 9f bc
       -0.18750559 0.051448923 0.065891 -0.019425133
0003e0 7f 23 43 3d b6 42 02 be 67 66 e9 3c 8c 20 25 bd
       0.047641274 -0.1272076 0.028491212 -0.040314242
0003f0 c5 91 d2 bd 9e 7b 72 bc 3e b9 9f 3d 66 fb 99 bd
       -0.102817096 -0.01479998 0.07799004 -0.075186536

sequential_1/conv2d_5/Conv2D f4 [64, 3, 3, 64]
000000 2d 22 96 bd 6f db 18 3c a9 f4 38 be f5 4f 31 3d
       -0.07330737 0.009329661 -0.1806208 0.043289144
000010 f0 2a 98 bd e1 28 05 be 0e 8d d4 bd 43 e8 08 bd
       -0.07430065 -0.13003875 -0.103784665 -0.033424627
000020 14 06 8f 3b 27 d9 45 3d 56 1a 3a 3e 3e 1f 08 bd
       0.0043647382 0.048302796 0.18174109 -0.03323292
000030 df a0 51 bd 09 f4 07 be 10 d7 b4 3d f3 01 22 be
       -0.05117881 -0.13276686 0.088300824 -0.15821056
000040 26 87 f3 3d 14 27 e1 3d 8e 9b 62 bd 57 c7 9c bd
       0.11891012 0.10993782 -0.05532413 -0.076552086
000050 f3 33 e5 bc 9d fa d1 bd 17 56 b1 bb a5 20 35 3d
       -0.027978873 -0.10252879 -0.005411874 0.044220585
000060 64 15 77 be 65 68 a9 bd 97 44 e5 bd c5 9d 06 3d
       -0.24129254 -0.08271865 -0.11194723 0.032865304
000070 1e c5 2e be bf 59 fc bd aa ef 29 bd 46 83 03 be
       -0.17067382 -0.12321805 -0.041488327 -0.12843046
000080 fa ca 04 be 79 86 7b be 8d 39 3d 3d b7 cd 62 bd
       -0.12968054 -0.24563016 0.046197463 -0.055371966
000090 82 96 1e be 44 47 e7 bd d0 73 01 3d 20 72 a6 bd
       -0.15487102 -0.1129289 0.031604588 -0.08127236
0000a0 17 87 2c 3d 05 ac 27 bd 1d 4b 77 bd 8a ae ba bd
       0.04212102 -0.040935535 -0.060374368 -0.09115322
0000b0 eb ef c3 3d 17 e0 d0 bd af 12 42 3d 89 5c ef bd
       0.09567245 -0.10198992 0.0473811 -0.116875716
0000c0 b9 e5 88 bd f0 47 c6 bc 65 f1 b2 bc f8 06 9e bd
       -0.06684441 -0.024204224 -0.021843622 -0.07716173
0000d0 bb e0 a5 bd bc 70 b8 bd 3b 37 8f bd 30 31 b5 bc
       -0.080995046 -0.090058774 -0.06992956 -0.022118181
0000e0 d9 df 71 3d f3 03 2d be b8 e2 01 3e ef 8b 85 bd
       0.05905137 -0.16896038 0.12684143 -0.06520831
0000f0 16 ed 93 3d a6 b7 0c bc 2b d2 84 3c 1a 1a b1 3b
       0.07222955 -0.008588707 0.016213497 0.005404723
000100 ba 72 8b bd f3 b1 42 bd 5d f3 d2 bd 63 f3 87 bd
       -0.06808992 -0.047532987 -0.10300324 -0.06638219
000110 75 8d 01 be a6 ed 05 be dc 2c de bc df e9 27 be
       -0.12651618 -0.13078937 -0.027121 -0.16397808
000120 b9 72 a1 3d ff ad b3 bd d5 55 56 bb f0 3b 93 3d
       0.0788321 -0.087734215 -0.0032704968 0.071891665
000130 24 b2 e7 bd 62 1a 8a bd f4 6c c0 bd 17 1d 5c be
       -0.113132745 -0.06743313 -0.09395781 -0.21495472
000140 96 55 a8 3d 9a 1c 93 3b 1d 9b a1 bd 4c c2 9b 3c
       0.08219449 0.0044894936 -0.07890914 0.019013546
000150 7c b2 aa bd 66 e9 3e 3d 0c 02 29 3a 75 ea 47 bd
       -0.083348244 0.046609305 0.00064471434 -0.04880758
000160 f3 f4 77 be 7a e4 81 3d 2e 6f 4e be 10 a8 01 bd
       -0.24214534 0.063424066 -0.20159599 -0.031654418
000170 89 d7 cc bd 31 1d 58 3d b0 56 2b 3e 26 74 3c be
       -0.100020476 0.052762214 0.16732287 -0.18403682
000180 fc f1 c2 bc 36 f4 5e be 1c 44 8e bd 46 0d 3b bc
       -0.023797028 -0.21772847 -0.069465846 -0.011416739
000190 7a 72 1d be b0 e9 53 be 69 87 13 be ed 49 00 be
       -0.153757 -0.20694613 -0.14407124 -0.125282
0001a0 e2 02 a4 3d 96 7a 2a be 93 49 20 3d 61 40 8c 3c
       0.08008362 -0.16648325 0.039132666 0.017120542
0001b0 e0 8b 7c bd c0 ca 7d 3d 3d 1b 28 3d dd 38 36 3a
       -0.061656833 0.061960936 0.0410416 0.00069512223
0001c0 d3 61 29 bd 61 5b 8a bc c9 f0 c1 bd e5 63 c1 bd
       -0.041353058 -0.016889276 -0.09469754 -0.094428815
0001d0 c5 b3 01 bd b0 9b a9 bd 63 ec 4b bd 50 84 8e bd
       -0.031665582 -0.08281648 -0.049785983 -0.0695883
0001e0 11 65 b2 bd 2b bf c9 bd 7c 65 85 3d cd f6 1b be
       -0.08710683 -0.098509155 0.06513497 -0.15230866
0001f0 cc 87 2d 3d a5 48 45 be 42 bf 5f 3d bb 0d 81 bd
       0.042365834 -0.19265993 0.054625757 -0.06301447
000200 04 a5 57 be 47 86 a4 bd 70 f4 30 bd 61 47 54 be
       -0.21059042 -0.08033424 -0.043201864 -0.20730354
000210 91 3c 8f bb 88 e5 85 be ee cf 1c be ae 61 93 3c
       -0.0043712338 -0.2615168 -0.15313694 0.017990913
000220 df d2 0c be 72 df ab 3d 3c a2 0d be 5a cd 62 bc
       -0.13752316 0.08392228 -0.13831419 -0.013842905
000230 5f 2a 77 be 9a 92 b1 bd 37 f5 9e bd ad ff 25 be
       -0.24137257 -0.0867054 -0.07761615 -0.16210814
000240 be d6 7d 3c 8c 07 46 3c 31 66 4a be 0d bc 95 3d
       0.015493093 0.01208676 -0.19765545 0.073112585
000250 a1 2f 1d be 44 1a 24 be e2 fe 02 be bc d6 3f be
       -0.153502 -0.16025645 -0.12792543 -0.18734258
000260 db f3 09 be ec 67 8d 3d 3e 5b 5b 3e 6b 1d 11 3c
       -0.1347193 0.06904587 0.21421525 0.008857111
000270 52 89 4a 3d 66 a5 71 be 35 93 98 3d e5 47 0a be
       0.049447365 -0.23598251 0.074499525 -0.13503988
000280 30 12 a9 3b fd b4 02 bd 50 20 06 3e 32 b0 33 be
       0.005159639 -0.031910885 0.13098264 -0.17547682
000290 81 f9 6b be b6 fb 7e 3c bf be 35 be 20 a5 9c be
       -0.23044397 0.015562942 -0.17748545 -0.3059473
0002a0 10 33 09 be 94 3e 71 be 63 39 92 3d 34 bd e0 bd
       -0.13398385 -0.23559028 0.07139852 -0.10973588
0002b0 92 c5 2a 3d e4 15 a3 bd ac 52 e0 3d c6 77 31 be
       0.041692324 -0.0796316 0.109532684 -0.17330846
0002c0 e9 4e ee bc 1c 6e 00 be e7 ae b0 3c a1 cc a6 bd
       -0.029090362 -0.12542003 0.021567775 -0.081444986
0002d0 29 ea 2d bd db 81 2c be 47 39 ee bd 85 92 9d bd
       -0.04245964 -0.16846411 -0.116320185 -0.07693962
0002e0 e1 bc 8a bb c9 63 f2 3b b2 40 af 3d 4e 41 27 bc
       -0.004233942 0.007397149 0.085572615 -0.010208441
0002f0 7b e3 3a be 04 c4 4b 3e 43 29 da bd cd 59 40 be
       -0.1825084 0.19898993 -0.10652401 -0.18784256
000300 3f e7 e2 bc c2 f4 20 be d0 14 3a bd 31 09 16 be
       -0.027698157 -0.15718368 -0.045430005 -0.14651944
000310 87 3c a5 3d d5 a7 2c bd 5d d1 f7 3c 05 02 f2 bd
       0.08068185 -0.042152245 0.0302512 -0.118167914
000320 b5 78 19 bc ac b5 0d 3e b9 76 93 bc aa 4a 31 bd
       -0.009367158 0.13838834 -0.018000947 -0.043284096
000330 c9 04 c1 bc 56 ab 9a 3d 23 f8 91 3d 73 00 9e 3b
       -0.023561852 0.07552211 0.071274064 0.004821831
000340 05 ba 95 bd 27 ea 91 3d fb 7a 1e 3d 9c 5f b8 bd
       -0.07310871 0.07124739 0.038691502 -0.09002611
000350 24 eb 3a 3e 4e f5 77 3d 4b 8b 5a 3d dc 74 69 be
       0.18253762 0.060536675 0.053355496 -0.22798485
000360 c6 26 64 3c 8e 2f 33 bd d8 15 aa bd 28 61 8b bc
       0.01392526 -0.043746524 -0.083049476 -0.017014101
000370 40 d0 68 bd 52 9a b0 bc 4e a9 0c be b7 07 02 be
       -0.056839228 -0.02155796 -0.1373646 -0.12698255
000380 d3 dd ea 3d 55 ec 59 bd 83 31 c7 bd d2 b7 d2 3c
       0.11468091 -0.0532039 -0.097262405 0.025722418
000390 32 cb e4 3d 88 94 4a 3d 91 75 f1 3d ce 09 ce 3c
       0.11171569 0.049458057 0.11790002 0.02515116
0003a0 4f 88 88 bd ed 21 f6 bc a7 b5 0b bd dd 03 d2 3d
       -0.06666624 -0.030045474 -0.034108784 0.10254643
0003b0 d4 b1 b0 bd e0 8a f1 3d 1b a4 ce 3c 89 68 16 bc
       -0.08627668 0.117940664 0.025224736 -0.009180197
0003c0 b0 47 29 3d 9c ac 17 be b6 bf 80 3d 4f 34 fe bd
       0.041328132 -0.14811939 0.06286566 -0.12412321
0003d0 b6 0c dd 3d 3b fd 62 3d dd 34 3c bd 18 6d 0c be
       0.1079344 0.05541728 -0.04594885 -0.13713491
0003e0 13 74 9e bc dc 0a 06 3b d8 73 28 3d 84 9e 64 3d
       -0.019342458 0.002045325 0.041126102 0.055815235
0003f0 76 41 f7 bd db a6 c9 bd 10 81 0a be aa 47 20 be
       -0.120730326 -0.09846278 -0.13525796 -0.15652338

sequential_1/dense_3/BiasAdd/ReadVariableOp f4 [10]
000000 39 e3 0d 3d fc 79 7a 3d 1f a4 cd bd 24 1d 1e 3d
       0.034640525 0.06115149 -0.10041069 0.03860201
000010 4a 6f 2f 3d 11 0e 6f bc 70 98 42 bd fd 13 1f 3d
       0.042830743 -0.014590756 -0.047508657 0.03883742
000020 ce 01 3d 3d 27 d8 9f bd
       0.0461443 -0.078049

sequential_1/dense_2/BiasAdd/ReadVariableOp f4 [64]
000000 4a 90 3a 3c 5a 74 db bc 9a ca 6a 3d 46 00 1d 3d
       0.01138694 -0.02678888 0.057322122 0.03833034
000010 c3 db ac bd f6 63 6e 3d 9a b8 22 bb 46 43 39 bc
       -0.08440354 0.0582008 -0.002482927 -0.011307543
000020 51 6d 2a bd d3 06 03 bd 3a 1c b5 bc c7 69 83 bb
       -0.04160816 -0.03198893 -0.022108186 -0.0040104124
000030 fc b4 b5 bc 3e e1 24 bd b7 e8 0f bc fc a7 c5 bc
       -0.022181027 -0.04025387 -0.008783511 -0.024127953
000040 31 a7 8b bd b0 cb 0b bd c8 94 f6 3c db 82 b8 bd
       -0.068189986 -0.0341298 0.030100241 -0.09009334
000050 27 a3 30 3b 04 f2 90 bc d9 23 45 bd af 35 0e 3e
       0.0026952715 -0.017693527 -0.04812989 0.13887666
000060 c8 da 10 3d 5e 71 15 bd 26 70 f3 ba d8 79 20 3d
       0.035364896 -0.03648507 -0.0018572852 0.0391787
000070 a0 6e 38 bd da 7b 84 bc e8 c0 8f 3d f1 19 56 bd
       -0.045027375 -0.016172338 0.07019216 -0.052270833
000080 44 2b b2 3c a2 fa 43 3c 72 c6 01 bc d4 58 78 bc
       0.021749146 0.011961611 -0.007920848 -0.015157897
000090 b4 d2 24 3d 1c 0e 5b bd 24 33 cb 3c 47 c4 3d bb
       0.040240005 -0.053480253 0.02480466 -0.0028956102
0000a0 75 19 41 bd 5d 05 20 3d c7 cb 05 3d a7 6d ad 3b
       -0.04714342 0.039067615 0.03266504 0.0052926126
0000b0 7f 11 82 3c ca 8f 6f 3d 92 07 a3 bd cd e7 2c bd
       0.015877483 0.058486737 -0.07960428 -0.04221325
0000c0 4b 86 13 bd 20 f6 ad 3a 29 a9 4c bd cc 4c 01 bd
       -0.036016744 0.0013272204 -0.04996601 -0.03156738
0000d0 d8 60 93 3d e4 cb ba bc e7 8a 4b 3d 0c 11 d3 3d
       0.07196206 -0.0228023 0.049693014 0.10305986
0000e0 dd 03 a2 3d 20 2d 2b bd 69 ab a2 3c b0 b5 f7 3c
       0.07910893 -0.04179108 0.019857125 0.030238003
0000f0 62 96 b5 bb ec 84 3a bd 6a 0a a1 bc 23 55 1c 3d
       -0.0055416087 -0.04553692 -0.019658286 0.03816713

sequential_1/dense_2/MatMul f4 [64, 576]
000000 3d 2b f2 bc a3 c7 1f 3d ca 2b b9 3d c9 fd 26 be
       -0.029561633 0.039008748 0.09041555 -0.16307749
000010 7f 01 e9 3c 5f bb 81 bd 4d f0 48 3e a5 42 61 bd
       0.028443096 -0.06334566 0.19622917 -0.054995198
000020 64 c7 05 3d 55 65 4c 3e ee f6 17 be 47 15 7b bd
       0.032660857 0.1996053 -0.1484029 -0.06129959
000030 d9 62 1f 3e b1 63 cf bc e3 bd b4 3d e8 c7 80 bd
       0.15565051 -0.025316091 0.088252805 -0.06288129
000040 f2 70 e6 3c fa b5 8b be f5 64 2b 3d 5a 1a 28 3c
       0.028130028 -0.27287275 0.041844327 0.010260189
000050 89 21 03 3e 28 82 5b bd 61 1e 15 3d ab 04 9f 3c
       0.12805761 -0.053590924 0.036405925 0.019411406
000060 6c c6 87 3d 42 28 b6 3d a3 8a b1 3c d6 4e 92 bb
       0.06629643 0.08894397 0.021672552 -0.0044649644
000070 78 ef 8f 3c 91 18 83 3e e7 8a aa bd 71 8d b3 bd
       0.017570242 0.2560468 -0.08327275 -0.08767212
000080 80 20 9b 3d c3 ab 1a be bc a2 a4 be 0c af 7f be
       0.07574558 -0.15104584 -0.32155406 -0.24969119
000090 38 a7 78 bd ce ce 2a 3c e8 06 a7 bb 9d d1 43 bb
       -0.060706347 0.010425283 -0.005097259 -0.0029879578
0000a0 a0 40 9b 3d 81 95 1f bd 81 a0 cd 3d d9 0a 2e 3e
       0.075806856 -0.038960937 0.10040379 0.16996326
0000b0 9c 94 93 3d e2 ff bb bd b3 ad d9 3d 39 a3 51 bd
       0.07206079 -0.09179665 0.106288336 -0.051181052
0000c0 21 af 9c bd 5b c1 cd 3c 46 9b f6 bd 0d 7d 52 bd
       -0.07650591 0.025116613 -0.12041335 -0.05138879
0000d0 c0 46 ff 3d 1e 61 43 3c 91 6a 34 3e d1 2a 33 be
       0.12464666 0.01192501 0.17618777 -0.17496802
0000e0 58 fb a4 3c 0a 14 83 bd 24 21 ca bc 80 ed 45 3d
       0.020139381 -0.064003065 -0.024674006 0.0483222
0000f0 d9 97 08 3e 65 d5 a4 3c 79 ff 9b bd 9a 26 a7 3d
       0.13339175 0.020121286 -0.07617087 0.081616595
000100 87 87 be bc 0f b4 c1 bd dc 8d 45 bd 0a 6b 93 be
       -0.023257984 -0.094581716 -0.04823099 -0.28792602
000110 00 82 9b bc cc 07 bf bd 84 9b 96 bd 5c 75 26 bd
       -0.018982887 -0.09327659 -0.07353881 -0.040639266
000120 ac 9a 12 be 81 47 4f be ba de 78 3d ff 72 e6 3d
       -0.14316815 -0.2024212 0.060759284 0.112524025
000130 ae 01 9c 3d cc 7b 5d 3d 6a 05 40 bd 28 00 c7 3d
       0.07617508 0.05407314 -0.046880163 0.09716827
000140 6e d5 3a 3d 23 16 55 be 20 69 3b 3e b1 17 61 3d
       0.0456137 -0.20809226 0.18301821 0.054954235
000150 b9 41 80 bd 43 54 3f be 57 b8 1a 3e 7f b1 c2 bc
       -0.062625356 -0.18684487 0.15109383 -0.023766277
000160 5e 95 d9 3c 01 31 24 3d a6 f3 d9 3c cf 00 0f bd
       0.026560482 0.040085796 0.026605438 -0.03491288
000170 dd 7d 50 bd 2d 49 da 3d 20 e4 d7 3c 4a 5b 22 bc
       -0.050901283 0.106584884 0.026353896 -0.00990946
000180 b9 45 2d be a3 37 04 be 7a e7 0a be 97 43 20 be
       -0.16921128 -0.12911849 -0.13564864 -0.15650783
000190 e4 64 a2 3c 0b 23 a6 3c 34 2e 67 3d a7 d5 af bc
       0.019823499 0.020280382 0.056440547 -0.021464182
0001a0 55 b8 d7 bd c6 11 97 3d 56 85 aa bc bd 7f cc 3c
       -0.105332054 0.07376437 -0.020815533 0.024963254
0001b0 9f 6c ed 3d 5b 9e df bd 6a 43 1b be 20 76 26 bd
       0.115929835 -0.10918876 -0.15162435 -0.040639997
0001c0 3f 2b cc bd d2 76 3e be 13 09 3c 3d 3a 4b be bc
       -0.09969186 -0.18600014 0.04590709 -0.02322923
0001d0 7c bc da 3c 3e b6 eb 3b 10 28 18 be b4 99 ac 3c
       0.026701204 0.007193356 -0.14859033 0.021069385
0001e0 c4 b6 1e 3e 62 db 5c bd e4 d6 ed 3d 7f 77 b9 3d
       0.15499407 -0.053920157 0.11613253 0.09055995
0001f0 51 82 3f 3e 35 a6 de 3c d7 e0 cc 3d 17 36 a2 bb
       0.18702056 0.027178863 0.10003822 -0.0049502957
000200 7c 5f 3f be 36 3b 4d bd 6a 5c d3 bd 30 56 ee bd
       -0.18688768 -0.050105296 -0.10320361 -0.11637533
000210 fa 53 cf 3d a0 96 2c be 9f 63 2b be 4a a8 06 be
       0.10123439 -0.16854334 -0.16737221 -0.13150135
000220 ef a8 b3 bd ff bd 88 3d c1 7b a2 bc ec f3 91 3e
       -0.08772456 0.06676864 -0.019834401 0.2850641
000230 f9 79 a7 3d 28 70 f9 bc af b3 50 bc 19 34 e0 3d
       0.08177561 -0.030448988 -0.012738152 0.10947437
000240 d2 8a a7 3d e2 f8 fa 3d 75 31 cb 3d 64 22 0b 3e
       0.08180775 0.12254502 0.099215426 0.13587338
000250 40 73 4c be 65 86 24 be 8a 7e 81 3d a0 be a3 bd
       -0.1996584 -0.16066892 0.063229635 -0.07995343
000260 d3 97 a0 3b 7d e9 0f be ef ac 63 3e 6d ba 9a 3d
       0.0049009114 -0.14053912 0.22233938 0.07555089
000270 c1 ff 02 3d 08 48 84 bd 3f 1c 83 3d 6b 86 08 bc
       0.031982187 -0.06459051 0.06401872 -0.008332829
000280 1e a0 10 be f9 75 38 be 49 52 82 be 8a 76 18 3e
       -0.1412358 -0.18013753 -0.25453404 0.14888969
000290 69 af b0 3c f6 46 98 3c 89 33 74 be 71 e2 a1 3d
       0.021568017 0.018588524 -0.23847784 0.079045184
0002a0 5e 03 95 3d 5b c8 a6 3d 5a 5d 30 be 45 ca 8b 3d
       0.07276033 0.081436835 -0.17223111 0.06825689
0002b0 f6 59 15 3e 39 54 72 bd ee b8 90 3d 33 71 5b bd
       0.14585099 -0.059162352 0.070665225 -0.053574752
0002c0 55 9f 6e be ba 6b cb bd 8e 3e 08 3e 74 a7 a5 bd
       -0.23302968 -0.099326566 0.13305113 -0.0808858
0002d0 2d 26 19 bb d2 e8 1b 3d 99 d0 5c 3c a7 8a e9 3c
       -0.0023368702 0.03806383 0.013477468 0.028508497
0002e0 ab f6 76 3e 42 a8 ca 3d 4d a2 2c bd a8 05 5c bd
       0.24117534 0.09895374 -0.04214697 -0.05371633
0002f0 7b 36 75 3e 77 b6 88 bd c6 11 f3 3c e1 55 d7 bd
       0.23946564 -0.066754274 0.029671561 -0.10514427
000300 e6 0e c0 bd c4 6f c9 bd fe 3b d8 3d 30 0a 5e bd
       -0.09377842 -0.09835771 0.105583176 -0.054208934
000310 03 ed 18 3d 0f a9 af 3c 47 2c d8 bd 5d 3b a6 3b
       0.037335407 0.021442918 -0.1055532 0.0050729946
000320 c8 b4 9d bd 10 4f 91 bc a9 60 c1 3d 94 12 3d 3e
       -0.07700497 -0.017737895 0.094422646 0.18464118
000330 7d aa ba bc 60 73 97 3d 45 b6 8c 3d ba 8f 08 3e
       -0.022786373 0.07395053 0.06870703 0.13336077
000340 18 d2 aa 3c bb 4d 9b bc fc 83 63 3d 4f f2 ca bd
       0.020852134 -0.018957963 0.055545792 -0.09909498
000350 52 b6 86 bd 8d 40 70 3d 19 c2 ed bc 10 76 1a 3e
       -0.065777436 0.05865531 -0.029023217 0.150841
000360 65 b0 5f 3d 1a bc 9a bc 30 36 8a 3c 8a a4 2f 3d
       0.054611582 -0.018888522 0.016871542 0.042881526
000370 2c 3b 77 3d b0 b9 b6 bd 2c 43 9d bc f1 7d 0c bd
       0.060359165 -0.08922136 -0.01919707 -0.034299795
000380 7e 9f f0 3d 6b 0d 01 be ba 75 95 bd 64 ff 8d 3c
       0.11749171 -0.12602775 -0.07297845 0.017333694
000390 ff 69 43 bd 98 d2 15 bd 8a 33 e3 bd d0 c4 86 bc
       -0.047708508 -0.03657779 -0.11093815 -0.01645127
0003a0 c3 5c 5f 3d a2 8e 4a bd 25 07 29 be 92 cc f7 3d
       0.054531824 -0.04945243 -0.16506632 0.120995656
0003b0 8a 9f d6 3d fd 82 a4 bd ab 55 a5 3c e9 7e e7 3d
       0.104796484 -0.080327965 0.020182451 0.11303503
0003c0 75 07 1f 3d b3 81 aa bd e8 4c 4f 3d 24 13 a6 3c
       0.03882547 -0.083255194 0.050610453 0.020272799
0003d0 c6 34 be bc b7 cc c3 3d 21 8f a7 bb 7b 7c f5 3d
       -0.023218524 0.09560531 -0.005113498 0.119866334
0003e0 b3 4b 4b bc d7 ba cd 3b 56 01 50 3e 9b c8 24 3e
       -0.012408185 0.0062783766 0.2031301 0.1609215
0003f0 ed bc 4d 3e 3d dc f2 bc 34 b2 af bc f4 61 fa bd
       0.200916 -0.029646033 -0.021447279 -0.12225714

sequential_1/dense_3/MatMul f4 [10, 64]
000000 00 76 45 3d ba 45 6d 3e 9b fb a7 bc 5c 2e 88 3c
       0.048208237 0.2317113 -0.020505717 0.016623668
000010 91 63 96 3e 1e 27 c6 be 78 1c 22 be 66 c4 d9 3d
       0.29372838 -0.3870172 -0.15831172 0.10633163
000020 51 95 62 3e a1 94 96 bd 8c 9d 4e 3d 28 f1 ea bd
       0.22127272 -0.073525675 0.050443217 -0.11471778
000030 5f cc ac 3e de ca 35 3e e1 e5 a4 bd e5 e5 e1 be
       0.33749673 0.17753169 -0.080516584 -0.44120708
000040 55 bb 99 be 60 e9 95 bd 71 1f fc bd 69 c1 60 be
       -0.30025735 -0.073199034 -0.123106845 -0.2194878
000050 ac ac 6c 3d df d1 8d be e1 53 2b be 37 90 de be
       0.05778186 -0.2769918 -0.16731216 -0.43469402
000060 67 b7 e3 3d bd c2 f3 bd c9 48 81 3e aa 76 6a bd
       0.111189656 -0.11902378 0.25250843 -0.057242073
000070 91 29 0c 3e 6a 30 89 3d 12 17 36 3e 5d 6a 18 3e
       0.13687731 0.066986874 0.17782238 0.14884324
000080 f4 fc 90 3e 3c 61 cf be a6 64 90 bd 50 a8 8c bc
       0.28317988 -0.4050387 -0.07050447 -0.017170101
000090 f1 21 8e be a0 42 82 3c 57 81 59 3d c1 fd 94 be
       -0.2776027 0.01590091 0.053101864 -0.2909985
0000a0 70 f6 d7 bd 46 37 9a 3e 5e 49 81 3e 5d ed c8 3e
       -0.10545051 0.30120295 0.25251287 0.39243594
0000b0 01 74 a5 3c f3 42 59 be 99 49 b7 3e 62 8d 5c 3e
       0.020196917 -0.21216945 0.35798338 0.21538308
0000c0 2b b2 7e 3d b8 f8 bd 3c 5e 52 ce be 0c f1 11 be
       0.062181633 0.023189887 -0.40297216 -0.14252108
0000d0 de a1 a2 b7 a8 d3 81 3c 37 56 fd be 68 45 58 3e
       -1.938728e-05 0.015847996 -0.4947984 0.21120226
0000e0 da 7b b5 be 1e 58 b9 bd 1d 86 e1 bd 7f 1f 8d be
       -0.35446054 -0.0905001 -0.11011908 -0.27563092
0000f0 57 8f 08 3e 57 ec b1 bd ec fe 0c be 9b 14 14 3c
       0.1333593 -0.086876564 -0.1376912 0.009038116
000100 57 61 2d be 1b 01 85 3e 4e 62 90 be 34 6a 99 3e
       -0.16931663 0.25977406 -0.282 0.2996384
000110 ff 18 72 be 35 a6 94 be 13 2a b0 be 52 bf 81 bd
       -0.23642348 -0.29033056 -0.344071 -0.063353196
000120 6d 88 15 3e 71 3a a2 be a8 6c ff bd 85 ea 80 3e
       0.14602824 -0.31685212 -0.124718964 0.25178924
000130 df c9 c9 bc 65 5f 59 be a7 4d 8f be ed 39 5f 3d
       -0.024632392 -0.21227796 -0.27988932 0.0544986
000140 5a 6d 3f be 00 e7 dd 3d cc 87 25 3e 3c be 34 bd
       -0.18694058 0.108350754 0.16165084 -0.044126734
000150 f1 8d 57 3e 57 3f 89 bd 95 0c 83 bc 46 26 8a 3e
       0.2105024 -0.06701534 -0.01599721 0.26982325
000160 ca e8 63 be a1 44 8e be 83 36 24 be fa 7f 54 be
       -0.2225677 -0.27786735 -0.1603642 -0.20751944
000170 7a be 3f 3e e7 c4 97 3d a1 e3 85 bd 5e 6f 39 be
       0.18725005 0.07410603 -0.065375574 -0.1810889
000180 dd a5 3c bd 02 50 6a bd 95 bf c5 bd 1c 1a 4f bd
       -0.046056617 -0.057205208 -0.09655682 -0.05056201
000190 fe 99 84 bd 6c a2 dc 3d a3 33 8a be f6 e5 81 be
       -0.06474684 0.10773167 -0.2699252 -0.2537076
0001a0 63 8a cc be 4e 71 47 be 01 14 cb 3c 0e c5 9b 3d
       -0.3994933 -0.19476816 0.024789812 0.076059446
0001b0 58 ed 36 3e ef 26 72 3e 59 74 98 3d 58 96 38 3e
       0.17863977 0.23647664 0.074440666 0.18026102
0001c0 8b 2b 5f be 10 28 47 3e 71 72 b9 3d 78 44 65 be
       -0.21793954 0.19448876 0.09055031 -0.223894
0001d0 a2 c2 23 3e d3 65 01 be 5f b5 ce 3d cb 10 45 3e
       0.15992215 -0.12636499 0.100931875 0.19244687
0001e0 8b df 2f be 95 c9 74 3e 8c 8e c8 bd 78 9b 18 3e
       -0.17175119 0.23905022 -0.09792814 0.14903057
0001f0 d5 bd c3 3d c7 25 07 be 47 e1 41 bd df 97 6e 3e
       0.09557692 -0.13198005 -0.04733398 0.23300122
000200 93 bc f8 3d 66 dd 3d bd a8 45 f7 3d 6e f6 35 3e
       0.12145343 -0.04635372 0.12073833 0.17769787
000210 cd 06 90 3e ea c5 ce bd 7b 46 46 3e 6f e1 ad 3d
       0.2813019 -0.10096343 0.19362824 0.08490264
000220 81 f4 de 3d 84 cb 56 3e ca be 19 be f8 7c 07 be
       0.10886479 0.20976073 -0.15014187 -0.13231266
000230 2a dd 1b 3e 8b 2d b0 3d 77 5e 98 3e 68 ad 06 3e
       0.15221086 0.08602437 0.2975957 0.13152087
000240 0b e6 88 3e 0a 4b 77 3e 91 4d c7 be 06 5a 93 3e
       0.2673801 0.24149719 -0.38926366 0.2877962
000250 fe 3c 84 3e 69 81 15 be 36 e8 79 be c2 ed 9c bd
       0.25827783 -0.14600147 -0.24404988 -0.07662536
000260 0f 01 e8 bd 5c f4 96 3e 61 61 c4 bc 9f 21 1f be
       -0.11328327 0.29483306 -0.023972215 -0.15540169
000270 f3 27 85 be 63 23 5b 3e 0e 8b 38 be e1 b4 49 3d
       -0.2600704 0.21400218 -0.18021795 0.049244765
000280 23 e2 9e 3d 95 0a 68 be fb cf 82 bb f3 7d 74 3d
       0.07757976 -0.22660287 -0.0039920784 0.059690427
000290 21 ef 0f be a5 60 74 be 32 75 55 3d 55 8c 8e be
       -0.14056064 -0.23864992 0.05211372 -0.2784144
0002a0 cd af 6a 3e e0 51 a6 be b6 91 50 3e d7 02 a9 be
       0.22918625 -0.3248434 0.20368084 -0.3300998
0002b0 e2 67 97 be 28 61 b5 3d a9 ed b0 be 39 81 02 bd
       -0.29571444 0.08856422 -0.3455632 -0.031861518
0002c0 44 a5 b3 3e 97 58 a3 3e eb ba 89 3d 7a bf 50 be
       0.35087025 0.31903526 0.06725105 -0.20385543
0002d0 b7 68 2a bd 00 89 39 3d 76 81 5a 3e 9d d0 2a 3e
       -0.04160377 0.04529667 0.21338448 0.16681142
0002e0 ae eb dc bd 29 61 92 3d c4 3d 09 3e d7 b1 cb be
       -0.1078714 0.07147438 0.13402468 -0.3978412
0002f0 5b 1d eb be 2d 4b c4 bb 68 18 9e bd da fa 3f be
       -0.45920834 -0.005990407 -0.07719499 -0.18748036
000300 7b 66 a0 3d 63 7d 23 be 9e 4e 20 3e c4 6d 9c bc
       0.078320466 -0.159658 0.1565499 -0.01909531
000310 db 30 1c be 3d 56 7c be b4 cd a6 3e 35 10 2c be
       -0.15253012 -0.24642272 0.32578814 -0.16803057
000320 6b c0 8d bd fb 76 35 bd b6 36 ac bd b3 9c 9a be
       -0.069214664 -0.04430292 -0.08408873 -0.30197677
000330 74 c7 78 be dd 77 68 3e df 6f 8a 3e 67 5e 1f be
       -0.24294835 0.22701974 0.27038476 -0.15563355
000340 34 02 90 be 54 e1 a9 be c6 14 ae bd 72 8b d0 3c
       -0.2812668 -0.33179724 -0.08500056 0.025457118
000350 cd 24 8d be 40 73 b8 3d 14 3a 76 be 3a 4a 5a 3e
       -0.2756714 0.09006357 -0.24045593 0.21317378
000360 9d b8 29 3e 21 6e 39 be 20 6d 39 be e1 40 73 3d
       0.1657433 -0.18108417 -0.18108034 0.059388045
000370 db a0 e0 bd 07 e7 66 bc 93 ee 49 3e 30 5a 16 3b
       -0.10968181 -0.014093167 0.19719915 0.002294194
000380 ad 1e 43 be 5e b2 85 be 4a 76 54 3e 7f 70 0e 3d
       -0.1905467 -0.26112646 0.20748249 0.034775253
000390 c6 b6 5b 3e 53 82 3b 3b ae 20 6a 3e a0 09 37 3d
       0.21456441 0.0028611615 0.22864029 0.044686913
0003a0 79 e1 62 be 94 b8 ac be a7 0e c6 3b 19 75 ab be
       -0.22156323 -0.33734572 0.006044227 -0.33487776
0003b0 a0 9c f7 3d 4c b3 8c 3e 88 ef 4c be 60 1e 59 3e
       0.12090421 0.27480543 -0.20013249 0.21202993
0003c0 e0 44 93 be 07 21 24 3e 9d c8 36 3e 8e 99 12 be
       -0.28763485 0.16028224 0.17849965 -0.14316389
0003d0 d9 bc 86 be 53 75 39 3e d3 d7 8f 3e 60 f7 64 3e
       -0.26315954 0.18111162 0.28094348 0.22359991
0003e0 23 62 7e 3e 16 78 cc be b8 92 63 3d f2 5e bc be
       0.24842124 -0.39935368 0.055559844 -0.36791188
0003f0 2b f0 82 3d d2 b8 56 bd a5 09 36 bb 86 45 8d be
       0.06393465 -0.052422352 -0.0027776745 -0.27592105
